submission/tflite/model.tflite (tflite, 446508 bytes, 10 tensors)

arith.constant f4 [128]
000000 7a 6b 0a bf ad db 4b 3d 79 15 f8 bf 11 9d 05 40
       -0.54070246 0.049770046 -1.9381553 2.0877116
000010 6c a3 ad bf 57 1f 32 bf cc db 33 40 c3 19 ee bd
       -1.3565497 -0.6957907 2.8102903 -0.116260074
000020 a7 be 22 c0 6a 71 fd bf cb 14 a4 3d d9 18 1c 40
       -2.5428865 -1.9800236 0.080117784 2.4390166
000030 cf ce 2b 3e e3 64 e8 bf f0 ef 19 c0 ea cb 18 40
       0.1677811 -1.8155788 -2.4052696 2.387446
000040 70 16 41 c0 56 bd c7 bd 4a e6 9d bf f4 99 84 bf
       -3.0169945 -0.0975291 -1.2335904 -1.0359483
000050 d0 77 9f bf a9 4d eb bf f0 04 7d 3f 79 ad a6 3f
       -1.2458439 -1.8383075 0.9883566 1.302169
000060 d0 3c 88 3b 98 4b 59 bd fd e8 0e c0 1e d2 a4 3f
       0.00415764 -0.053050607 -2.2329705 1.2876623
000070 51 85 95 bf 67 47 b0 bf f0 da 16 3f 17 72 59 3f
       -1.168131 -1.377179 0.5892782 0.8493971
000080 57 2f 79 bf 56 f1 9b bf c6 be 98 3f 36 69 f9 3e
       -0.9733786 -1.2183025 1.193322 0.48713082
000090 08 d3 3b 3f b4 6c cd 3f 01 e9 0a bf c6 37 1e 40
       0.73368883 1.6048799 -0.54261786 2.4721541
0000a0 7f 37 9f 3f 43 72 19 3f c2 1d d9 bf 16 11 2c bf
       1.2438811 0.59939975 -1.6962206 -0.6721357
0000b0 d3 ad ff be 2c e3 19 40 2c 17 f3 3f 1b 02 b7 bf
       -0.49937305 2.4044905 1.8991446 -1.4297518
0000c0 2c eb bf 3e 89 44 0e c0 a0 ec b0 bf b4 1c a9 3e
       0.3748411 -2.222933 -1.3822212 0.3302971
0000d0 45 2d a6 3f a8 40 32 c0 a0 72 cb 3f 4f 43 cf 3e
       1.2982565 -2.7851963 1.5894356 0.4048104
0000e0 5a 15 25 c0 8e af 40 bf c9 44 ba bf 0a d0 a8 bf
       -2.5794282 -0.75267875 -1.4552242 -1.3188488
0000f0 c7 dc b5 3e 5d 5e 09 bf e5 56 b1 3f 8b b4 af 3e
       0.35520002 -0.5365961 1.3854643 0.3431743
000100 f7 25 f0 bf 46 4e 07 40 7f 05 b8 3f 8b ea c7 3f
       -1.8761586 2.1141524 1.4376677 1.5618452
000110 fd 82 4c 3f 22 cf cb bf a8 be 7b bf e3 72 42 3f
       0.7988737 -1.5922587 -0.98337793 0.75956553
000120 40 47 ea bf 42 69 60 bf 1a c9 de bf a0 0b 19 3d
       -1.8302994 -0.8766061 -1.7405121 0.037364602
000130 1d 4d b3 bf 94 23 a2 bf bb 31 67 3f ab 62 b2 bf
       -1.4007908 -1.2667108 0.9031026 -1.3936361
000140 aa 34 e2 3e e6 33 90 3f 62 d1 dc bf 63 be b9 3f
       0.44180804 1.1265838 -1.7251399 1.4511226
000150 7d cc a5 bf 02 42 8b bf 37 0a f9 bf 45 f7 a0 bf
       -1.295303 -1.0879519 -1.9456242 -1.2575461
000160 98 5b ec 3f 49 7a df 3f cc c0 13 3f f2 07 dd bf
       1.8465452 1.7459193 0.5771606 -1.726805
000170 f6 29 b9 3f 8a dd cc bf 69 da b8 3f c2 d9 df 3f
       1.446593 -1.6005108 1.4441653 1.748833
000180 43 c2 b1 bf 12 16 eb 3e dc 5e 94 be a3 16 ff bf
       -1.3887409 0.45915276 -0.28978622 -1.9928783
000190 86 9a eb 3f e8 9c 29 c0 8a a4 02 c0 25 aa 70 3f
       1.8406532 -2.6502018 -2.0412927 0.9400962
0001a0 1b 71 79 bf dc 2f 4e bf 38 97 bc bf d6 60 1c 3f
       -0.9743821 -0.8054178 -1.4733648 0.6108526
0001b0 67 4d 52 3f 18 01 83 be f7 c7 7a bf 9f 5f 82 3f
       0.82149357 -0.25586772 -0.9796137 1.0185431
0001c0 e2 14 54 bf a3 75 a3 bf 44 b7 a0 3e 35 93 10 40
       -0.82844365 -1.2770275 0.3138982 2.2589848
0001d0 26 87 b4 bf bc bb 73 3e 33 51 a8 3f 3a a2 28 3f
       -1.4103744 0.23802084 1.314978 0.6587254
0001e0 c1 68 b4 bf 3e 36 8c bf e2 6c 3d 40 d6 08 59 3e
       -1.4094468 -1.0954053 2.9597707 0.21194777
0001f0 66 20 db 3f 08 d9 0b 3e f2 ae 56 3f ed b6 09 c0
       1.7119262 0.1365701 0.83860695 -2.15179

arith.constant1 f4 [64]
000000 9a cc 6e bf 93 9e 51 3f 0a e9 72 bd 9e f5 12 bf
       -0.9328095 0.8188259 -0.059304275 -0.5740603
000010 9b 19 b1 bf 1b 17 b9 bd 9d 5f 1c be a9 3e 73 3f
       -1.3835939 -0.0903761 -0.15270849 0.95017487
000020 e3 c5 f5 bf fa d5 03 3f 7e b6 46 3f 37 ee 00 40
       -1.9201015 0.5149838 0.7762221 2.0145395
000030 55 c1 41 bf c4 23 b5 3e 73 b5 ac be 6f c8 36 3f
       -0.75685626 0.3537885 -0.33732185 0.7139959
000040 21 ef 8b 3f 12 11 67 3f 9e 1e 58 3f 86 b3 34 3f
       1.0932351 0.9026042 0.8442172 0.7058643
000050 c7 8a b1 3f cc 01 a8 3f e5 d4 42 bf 01 9c 8a 3f
       1.3870476 1.3125548 -0.761061 1.0828859
000060 0d a7 ac bf 68 1d 56 3e 41 22 55 bf 8f 84 dd 3f
       -1.348848 0.20909655 -0.8325539 1.7306079
000070 38 cc 1e c0 7e c5 bf 3f de 54 38 3f 86 2b 85 bf
       -2.4812145 1.4982145 0.720045 -1.0403907
000080 fb 2f 87 3f 8d 4c 8f be ca 4d 21 3f b2 66 84 be
       1.0561517 -0.2798809 0.6300932 -0.258596
000090 ce bb 70 bf 72 e6 03 3f 3c b4 70 bf 1d 3d 1a c0
       -0.9403657 0.51523507 -0.94025016 -2.40998
0000a0 cb 5d d2 3f 3b 62 48 be d9 35 e2 bf ee c0 1a 3f
       1.6434873 -0.19568722 -1.7672683 0.6045064
0000b0 78 83 c3 bb 24 79 99 3f 2f 45 b0 3f 6e 18 13 bf
       -0.0059666 1.1990094 1.3771113 -0.5745915
0000c0 c4 cc 92 3f 07 25 e7 3f 03 0d f8 bf 14 4a 40 3f
       1.146874 1.8058175 -1.9378971 0.75113034
0000d0 5b 42 3d bf cc ac 48 3f 1f ff 1d bf 7f e7 eb 3f
       -0.73929375 0.7838867 -0.6171741 1.8430022
0000e0 66 6c 06 be 47 cd e0 bf f2 f9 6d 3f 82 71 c9 3f
       -0.13127288 -1.7562646 0.9295951 1.5737765
0000f0 ad 4c 6b 3f e7 42 26 3f 34 6a 90 3f 40 a8 5f bd
       0.9191387 0.64945835 1.1282411 -0.054603815

arith.constant2 f4 [128, 3, 3, 64]
000000 2a c5 20 3c ee 14 7d bc 32 2e 25 39 74 6c 72 3c
       0.009812633 -0.015446885 0.00015752835 0.014796365
000010 4b 6d d3 b9 cd b2 e1 bc a2 eb 0d 3c ae a0 ec 3c
       -0.00040326486 -0.02755108 0.008662136 0.028885212
000020 40 25 3d 3c a6 6f 92 3b 57 8e ae bc 33 58 08 3d
       0.011544526 0.004468876 -0.021308107 0.03328724
000030 02 12 87 3c 02 4f 48 3d ba 09 cc bc 5c 19 9f bc
       0.016488079 0.048903473 -0.024906982 -0.019421272
000040 99 cb 6a bd ba 80 c6 bc 53 3e db bc c3 d8 99 bb
       -0.057323072 -0.024231303 -0.026763117 -0.0046950295
000050 c7 78 79 3c 25 52 15 3d 5e 3f 3c 3d 9a 6c 06 bd
       0.0152265495 0.036455292 0.04595887 -0.032818414
000060 f9 b5 c8 3c 16 7d 19 bd 68 a6 a0 3d 04 f0 bf 3b
       0.024500834 -0.037472807 0.078442395 0.0058574695
000070 4d c9 ae 3c 9c c7 af bc 89 17 f9 bc 73 4b 1a 3d
       0.021336222 -0.021457486 -0.03040673 0.03766961
000080 8b ba 90 bc c2 87 3b 3d 79 37 12 bd 06 8f 9c 39
       -0.017667076 0.045783766 -0.035697434 0.000298612
000090 3a 66 34 3c 58 96 be bc 17 d6 56 ba 52 28 6a 3c
       0.011010701 -0.023265049 -0.0008195354 0.01429184
0000a0 ab 32 33 3d e3 18 49 bc 1b cc 86 bb 0a 10 41 3d
       0.043749493 -0.012274 -0.0041136867 0.047134437
0000b0 30 a5 8d bb b2 1a 4a 3c 2e b7 60 3c e3 6b be 3c
       -0.0043226704 0.012335466 0.013715548 0.023244804
0000c0 41 ea c7 bc 97 2a 09 bc 03 45 40 bc 0a 72 47 bd
       -0.024403693 -0.008371971 -0.011735204 -0.04869274
0000d0 e7 9b e6 3c 45 d4 01 bc 57 da b2 3c 9e b7 85 3c
       0.028150512 -0.007924144 0.021832628 0.016322907
0000e0 6a ee b2 ba 42 c6 27 bc eb ed 29 bd 0e 0f 23 3d
       -0.0013651375 -0.010240139 -0.041486662 0.03980928
0000f0 91 75 20 bb 64 e6 03 3c 47 42 98 3b 78 53 77 3d
       -0.0024484138 0.008050535 0.0046465728 0.060382336
000100 36 98 5d 3c 9b 69 38 bc 3d ee be 3c 9f f9 40 3d
       0.013525059 -0.011255647 0.02330696 0.047113057
000110 c3 1a 7b 3b d1 cb ad 3c 63 49 45 bc c9 7d 0c 3d
       0.0038315512 0.021215351 -0.012041423 0.034299646
000120 5c 94 bf 3c cc 28 3e 3d 8f 73 c5 bc 7e 96 fa 3c
       0.023386173 0.046425626 -0.024102954 0.030589338
000130 34 cd 29 bd 16 5e 0f bc dc 82 8a bc 4d d6 6c 3c
       -0.041455463 -0.008750459 -0.016908102 0.01445539
000140 37 60 1a bd 4c 81 f9 bc dc ac ef ba c8 d4 9d bc
       -0.037689414 -0.030457161 -0.0018285769 -0.019266501
000150 af 00 20 bd 06 2f e0 bb 31 0c ef 3c 70 2c 78 3b
       -0.039063152 -0.006841543 0.029180618 0.0037868284
000160 04 2e cc 3c ef 0a 71 3c 6b 9d 02 3d 9d 00 fb 3c
       0.024924286 0.014712079 0.031888407 0.03063994
000170 97 d9 30 3d a2 a5 9f 3c 0a ac d0 3c b1 21 00 3d
       0.04317626 0.01948816 0.02547266 0.03128213
000180 45 57 38 3d 66 7b 34 bc c7 87 05 3c 06 f1 7b 3c
       0.0450051 -0.011015749 0.008150048 0.015377289
000190 5f b6 9f 3b 32 fd d0 3c 58 6a bb bb e5 f7 d9 3b
       0.0048740353 0.025511358 -0.0057194643 0.006651866
0001a0 79 6a 0c 3d 87 93 a4 3b f3 8e bb bb 47 ea ee 3c
       0.034281228 0.0050224694 -0.005723828 0.029164447
0001b0 07 06 4b bd 53 16 d7 bc f4 d8 a1 3c f7 99 5a bb
       -0.049566295 -0.026255762 0.019756772 -0.003335593
0001c0 d3 87 d4 3c d7 f3 a1 bc 04 cf 4a 3b da 9f 31 bd
       0.025943672 -0.019769592 0.0030946145 -0.043365337
0001d0 9e 4f dd 3a c9 10 5f 3c ac b8 27 3d 19 63 af bc
       0.001688469 0.013614842 0.0409476 -0.021409558
0001e0 a6 96 66 3d 31 02 4d bc d0 06 38 bd f4 b3 4e 3d
       0.056296013 -0.0125127295 -0.044928372 0.050464585
0001f0 2d 8a 42 3b e2 01 78 bc 3a 76 8c 3c 7b e5 ac bc
       0.002968441 -0.015137168 0.017146219 -0.021105519
000200 97 0e 03 3d 59 c7 bd bb f7 4e 5b bb 9a f0 cd 3c
       0.031996336 -0.0057915864 -0.0033463815 0.025139142
000210 97 61 d2 bc f2 52 3a bc 84 e5 98 bc 01 8b 02 bd
       -0.0256813 -0.011372315 -0.01866413 -0.031870846
000220 9f 3b 09 3d 3e 66 a3 3c 09 55 cd 3c e5 7d bf 3c
       0.033504125 0.019946214 0.025064962 0.02337546
000230 aa a7 32 bd 85 5b f1 3c 3d 15 75 3c 00 61 1a 3c
       -0.04361693 0.029462585 0.014958677 0.009422541
000240 10 9b 6a bd a6 d0 b4 3c 41 8f 7d bc f6 c9 da bc
       -0.057276785 0.022072148 -0.015476049 -0.02670763
000250 4a a7 26 bd 89 9b 39 3d 28 ca 33 bc 3c d1 03 bd
       -0.040686883 0.045314346 -0.010973491 -0.032181963
000260 0d 94 85 bc de 6e 44 bb 9d 86 22 3d 65 c1 a1 bc
       -0.016305948 -0.0029973309 0.03967916 -0.019745538
000270 2d 58 85 bb cb d5 be bc 81 80 96 bc 11 ec 76 bc
       -0.0040693493 -0.023295304 -0.018371822 -0.015070931
000280 ed 89 e3 bc ae a9 70 3c a9 43 f5 bc 8c 1a a6 bc
       -0.02777573 0.014688892 -0.02993949 -0.02027633
000290 b8 72 18 bc 76 51 dc 3c bc 10 d2 bc 59 df 3d 3d
       -0.009304695 0.026894312 -0.025642745 0.04635558
0002a0 fb 41 05 3d 57 e9 06 bd 99 9d 2b bc 8d 90 3b 3d
       0.032533627 -0.032937374 -0.010474586 0.04579215
0002b0 69 d1 4d 3c 29 9b 95 3c e2 0b 8c 3c 19 4a c7 b9
       0.012562134 0.018262463 0.01709551 -0.00038011445
0002c0 79 69 d5 bb ff 47 ba bc 0f ae 18 3c e8 b0 d6 bc
       -0.0065128175 -0.022739409 0.009318843 -0.026207402
0002d0 d7 72 40 ba a0 bf b7 bc 0c 5e 81 3c f0 f7 13 3d
       -0.0007341331 -0.022430241 0.015791915 0.036125124
0002e0 49 59 8f 3a fe 24 90 3b 69 57 a6 bc 9e 14 bb bc
       0.0010936643 0.004398941 -0.020305352 -0.02283698
0002f0 d1 58 b3 bb a3 2c a0 bc 61 ac d5 3b d4 b6 ac 3c
       -0.005473234 -0.019552534 0.0065207933 0.021083273
000300 7f ea 29 3c bb bd 2b bd a9 ea 58 bd 39 48 37 3d
       0.01037085 -0.041928988 -0.052958164 0.04474661
000310 ff 13 e7 3c 45 6a 1d 3d 15 eb 90 bc 81 58 5b 3c
       0.028207777 0.038431425 -0.01769022 0.0133878
000320 04 cc 7e 3c 74 96 ba 3c 6d 89 a3 3c 3d f8 48 bc
       0.015551571 0.02277682 0.01996299 -0.012266216
000330 f1 e2 0f bd 17 d7 ba 3c f9 af da 3b d8 e1 3e bd
       -0.035128538 0.022807641 0.0066738096 -0.0466021
000340 c3 8f 4f bd 90 63 dc 3b 9c d6 04 3b 04 e8 39 bd
       -0.05067421 0.006725736 0.0020269519 -0.045387283
000350 02 41 9d bc 5b 1c 46 3d e3 3b fc 3c 27 6e 71 bc
       -0.019196037 0.048366886 0.030790275 -0.014735735
000360 fc 54 15 3c 5f d9 cd 3c 3f f2 72 bc 8c 3b 0d 3d
       0.0091145 0.025128065 -0.014828264 0.034480616
000370 f0 89 97 3c 0c 0c d3 3a f1 90 31 bd 49 f6 c0 3c
       0.01849839 0.0016101613 -0.043351118 0.023554938
000380 3f 37 13 3d f3 b9 b2 bc 60 e0 03 3d d5 66 9f bb
       0.03594136 -0.021817183 0.032196403 -0.0048645535
000390 9a ab 9b 3c 10 cd ca 3c 31 9c b8 bc 98 48 14 bc
       0.019002724 0.024755985 -0.022535415 -0.009050511
0003a0 69 81 4d 3d 46 67 32 bc c5 e0 ec bc 5f 3f 19 3d
       0.050172243 -0.01088888 -0.028915772 0.03741395
0003b0 82 47 a4 3c c6 bf ee bc 83 9e 0e 3d b5 5f 6c bc
       0.020053629 -0.02914418 0.034819137 -0.014427115
0003c0 72 c9 3b 3d b8 de 44 3c c0 f2 49 3d cf cc 90 bc
       0.04584641 0.012015991 0.04930377 -0.017675785
0003d0 82 e9 39 3c 33 09 f3 bc 52 66 c6 3c 97 f0 62 bc
       0.0113471765 -0.029667472 0.024218712 -0.013851306
0003e0 f9 11 0d 3d 95 c6 ff bb 5b 29 02 bd 71 5a da bc
       0.03444097 -0.0078056552 -0.03177772 -0.026654454
0003f0 3b 70 c5 bc a7 aa 58 3c 36 6f 8e 3c 64 3f ec ba
       -0.024101367 0.01322428 0.017387014 -0.0018024263

arith.constant3 f4 [64, 3, 3, 32]
000000 fd fe 22 bc 20 6e 9b bd 60 1e 5b bd 9b 80 bc 3d
       -0.009948489 -0.07589364 -0.053495765 0.09204217
000010 0b 38 ac bc 79 1f cd bd 90 6f ed 3d 85 18 c9 bd
       -0.021022817 -0.100157686 0.115935445 -0.0981913
000020 3f a6 0f 3e 86 f9 a9 bd 4a cc d1 3d 5c 38 98 3c
       0.14028262 -0.08299546 0.10244043 0.018581562
000030 23 f9 97 3d 74 5f 33 3d f6 1c 44 3b e7 63 32 3d
       0.07420566 0.043792203 0.0029924489 0.043552306
000040 2b 83 a9 3d 0f fc 09 be 34 da 20 bc 84 c6 4f 3d
       0.082769714 -0.13475059 -0.009817649 0.05072643
000050 8d 43 82 39 5b 3e 58 3d 76 ab 34 3d fb d6 04 be
       0.00024845861 0.05279384 0.04410883 -0.12972634
000060 5c 03 4c bd e7 6f 1e bd 01 bd 07 3e 4f c1 68 bc
       -0.04980789 -0.038680937 0.13255693 -0.014206245
000070 26 45 0e 3d 3c bc bb 3d 2b ca 03 3c 4f 92 d0 3d
       0.034733914 0.09166762 0.008043806 0.10184156
000080 25 c5 a8 3d 05 03 54 bd 9a 1e 55 3d bd 91 13 3e
       0.08240727 -0.051760692 0.052031137 0.14411063
000090 07 2c a9 3c 75 40 0d bc 34 e6 80 bd a7 15 ab bd
       0.020650877 -0.008621325 -0.06293908 -0.08353739
0000a0 e5 ec bf 3d a3 48 99 3d 09 07 8d 3c 8d 98 9f bc
       0.09371356 0.074845575 0.017215269 -0.019481922
0000b0 14 94 ae bd 77 b9 37 bc f4 5b d8 3d 4e 19 b0 3d
       -0.085243374 -0.011213652 0.10564414 0.085985765
0000c0 7f 78 4f 3d 93 b7 d1 3d 9a 5b fc 3c 3d 2a 52 bd
       0.050652023 0.10240092 0.030805398 -0.051309813
0000d0 2d f5 ee bd d3 96 c4 3d 66 1e 87 3d 41 88 9b bd
       -0.11667857 0.0959908 0.06597595 -0.07594348
0000e0 e9 f9 07 3d 69 a1 e5 3c a7 61 05 be ed 00 e7 bd
       0.033197317 0.028031068 -0.13025533 -0.112794735
0000f0 5f 9d 80 bd 41 e3 18 3e 72 5b df bd e5 77 7c bd
       -0.06280016 0.1493044 -0.10906114 -0.061637778
000100 83 56 bf 3d 4a 73 23 3e 98 fe cd bc a8 1b be bc
       0.09342673 0.15961948 -0.025145814 -0.023206547
000110 bf 52 9b bd fb 72 9f 3b e9 e8 ce 3d 4c ec 02 be
       -0.07584142 0.0048660017 0.10103018 -0.12785453
000120 1e 7e 8d 3d 5d e3 b0 bd 60 e1 36 3d 38 ae 79 3d
       0.069088206 -0.08637116 0.044648528 0.060957164
000130 d7 ef c4 3d c3 9f 82 3d 4c 46 c3 3d 34 40 90 bd
       0.09616058 0.063781284 0.095348924 -0.07043496
000140 ef dd 28 3d fe 7b a5 bd ba 0d 8b 3c 61 06 dc bd
       0.041227277 -0.0808029 0.016974319 -0.10743404
000150 5d 6b fe bd 66 1e 3d bd bb 9e ee 3b e5 78 a1 3d
       -0.12422822 -0.04617157 0.0072821057 0.07884387
000160 55 d4 3d 3b 12 64 a8 bd c2 da ff 3c b1 d9 ed 3d
       0.002896567 -0.08222212 0.031232242 0.11613787
000170 59 0e 87 3d d5 30 da bd 6c b6 9d bd 35 4e b0 bd
       0.065945335 -0.10653845 -0.0770081 -0.08608667
000180 a3 91 6e 3c f2 f3 ab bc 2c 11 1a 3d 88 77 0e 3e
       0.01456109 -0.020990346 0.037614033 0.13912785
000190 78 03 fe 3d bb 03 32 bb f2 b1 b9 3d 2b f2 71 bc
       0.12403005 -0.0027162868 0.090671435 -0.01476721
0001a0 60 eb e1 bd 10 3d 02 be 5f 01 e5 bd 5c 58 bc 3d
       -0.11031222 -0.12718606 -0.11181902 0.09196541
0001b0 9f 12 e5 bd 1a ed 03 bc 56 b4 e5 bc 17 80 1b 3e
       -0.11185192 -0.008052135 -0.028040092 0.15185581
0001c0 af cc 0e bd 9c d1 8c bd 53 7e d0 3d ef 34 91 3d
       -0.03486317 -0.06875917 0.101803444 0.070901744
0001d0 e0 be e4 bd 41 d4 55 bd 8a 7c 0a bd 80 53 06 3e
       -0.11169219 -0.052204374 -0.033810176 0.1311779
0001e0 65 2e a0 bd c8 c1 fb 3d 13 99 48 3e e1 fe 14 3d
       -0.07821349 0.1229282 0.19589643 0.036375884
0001f0 5c 9b 2f 3d c8 d8 1f 3d 69 35 36 3d da 09 6c 3d
       0.04287277 0.039025098 0.04448453 0.057626583
000200 4b e5 e7 bd be 1a 9e bd 7c 38 d5 3d ec 79 16 3e
       -0.11323031 -0.077199444 0.10411164 0.14694947
000210 a6 6b 5d 3c cf ee d6 bd 25 e4 bf bb dc 3f a1 bd
       0.013514435 -0.10494768 -0.0058560544 -0.07873508
000220 04 16 b0 3c 95 4a dd bd a0 2f 2d bd 7c 9e e2 bd
       0.021494873 -0.10805241 -0.042281747 -0.11065385
000230 99 f2 fe 3d 39 c6 cb bd dd 33 92 bc c5 0a fd bd
       0.124486156 -0.09949917 -0.017846996 -0.1235557
000240 d4 47 aa 3c 19 f7 14 be 58 f5 4a bd 55 b2 39 3d
       0.020786203 -0.14547385 -0.049550384 0.045336086
000250 0b 05 64 bc 1d 45 83 3d 66 bd 86 bd b6 8e 45 3c
       -0.013917218 0.06409667 -0.06579094 0.012057951
000260 d8 69 1d bc b2 42 13 bd 53 54 97 bd e2 33 dd 3d
       -0.009607755 -0.035952277 -0.073891304 0.108009115
000270 e5 51 ad 3d 65 6c 49 bd fd e5 69 bd ca 51 5d bd
       0.08462886 -0.04917564 -0.0571041 -0.05403308
000280 af ee 35 be 74 89 24 3e 4d 53 d7 3d 32 98 9f 3d
       -0.17766832 0.16068059 0.10513935 0.07792701
000290 ad f9 81 3d 3b 6f 01 3e 35 ca 80 bd f9 c4 3e be
       0.0634645 0.12640087 -0.06288568 -0.18629827
0002a0 71 dc f4 3d 89 71 28 be aa 16 09 be b4 7a b5 3d
       0.11956108 -0.1644956 -0.13387552 0.088612944
0002b0 bc 60 38 bd 76 04 ef 3d 92 bd d6 3d cc 01 3e 3d
       -0.045014128 0.11670773 0.104853764 0.046388432
0002c0 35 2c fc 3d 31 1f d8 bc ca 85 bd 3d b9 a4 cc 3d
       0.12313119 -0.02638206 0.09254034 0.09992356
0002d0 e7 fa ec 3d 6f 41 32 3c 63 07 43 3c 5b 18 82 3c
       0.11571293 0.010879858 0.011903617 0.015880754
0002e0 a8 bb 39 3d b8 f1 54 bd 51 00 04 3c a5 f4 f4 3d
       0.04534498 -0.051988333 0.008056716 0.11960725
0002f0 31 f2 0e 3e bb e1 fd bd 18 66 ab 3d 07 01 a7 3c
       0.13959576 -0.1239657 0.08369082 0.020386232
000300 15 d0 e6 3d 42 35 5b bc ac ec d5 3d f5 e4 07 3e
       0.11270157 -0.013379397 0.10445532 0.13270934
000310 aa 7c 0d bd c5 65 aa bd a6 89 5f bd da e8 3b bc
       -0.034542717 -0.08320192 -0.05457463 -0.01146909
000320 69 df af 3c c7 49 79 3d 80 24 c5 bd 2a f8 5a bc
       0.021468835 0.060861375 -0.096261024 -0.013364831
000330 bc fa a2 bd 21 50 e9 3d a2 3c dd bd 40 3e b1 3d
       -0.0795798 0.113922365 -0.108025804 0.08654451
000340 c1 f7 4f bd 9f ff df 3d 1e 16 c1 3d 69 80 f6 3d
       -0.050773386 0.10937428 0.09428047 0.12036211
000350 d1 84 93 3d cd d3 21 be 64 19 d1 3d e7 c7 b0 bc
       0.07203067 -0.15803452 0.10209921 -0.021579696
000360 10 a8 21 be 8e 8a de 3d 20 75 08 3e 11 99 5a 3c
       -0.15786767 0.10866271 0.1332593 0.013342158
000370 07 f7 9b bc 89 50 ed bd 22 4b 4b 3d fb 84 0c 3e
       -0.01903869 -0.115876265 0.0496322 0.13722603
000380 28 aa cf 3c c7 a6 f8 3d d1 10 5f bd f2 4e e9 bb
       0.025349692 0.12141185 -0.054459397 -0.0071200067
000390 77 b1 b4 bd 5f f6 00 be 72 6a 7f bd e0 a3 c0 bd
       -0.08822911 -0.12593983 -0.062357374 -0.09406257
0003a0 a1 40 f5 3d e5 85 69 bd b3 b2 21 3e f5 c8 a4 bc
       0.119752176 -0.057012457 0.15790825 -0.020115355
0003b0 33 76 10 3d 9f 3c 36 be 96 6f ed bd 02 a4 13 3e
       0.035268974 -0.17796563 -0.11593549 0.14418033
0003c0 09 d5 f8 3d a1 44 b9 bc 7d 36 ac 3c 4f c9 e9 3d
       0.12150008 -0.022615733 0.021022076 0.1141535
0003d0 cb 51 b4 3d 33 3a 24 3d c0 43 92 3d 77 7a e8 3c
       0.08804663 0.040094566 0.071418285 0.028378708
0003e0 6e 75 17 be ad e2 92 bd ab ad da 3d f7 ae b0 3d
       -0.1479089 -0.07172141 0.10677656 0.08627122
0003f0 e3 77 36 3d ff 99 81 bc 33 c4 f3 3d 30 6b 37 bd
       0.044547927 -0.015820501 0.119026564 -0.044779956

arith.constant4 f4 [6, 128]
000000 a6 d5 44 be 6b d9 57 3e b8 d9 43 3e bb 25 6a 3e
       -0.19222125 0.21079032 0.19126022 0.22865956
000010 f8 9b 53 be 70 62 39 3e 14 e9 38 3e 11 35 1b be
       -0.20664966 0.18103957 0.18057662 -0.15156962
000020 5d 04 3e bc dd 1d 65 be 3e c4 a0 bd 76 9e 96 3d
       -0.01159772 -0.22374673 -0.0784993 0.07354443
000030 38 c4 c9 3d 35 8e ac 3c 7c 83 2d be 86 8e 46 3e
       0.09851879 0.021063903 -0.16944689 0.19390306
000040 d8 6a e9 bd 77 aa 90 3c b8 64 dc 3d ca 61 af bc
       -0.11397332 0.017659409 0.10761398 -0.021408934
000050 79 9c f3 bc 31 43 53 be d5 62 01 be 50 56 6c 3d
       -0.029737698 -0.206311 -0.12635358 0.0576995
000060 ae d7 18 3e 7d 30 2b bb 70 1e d7 3d e7 bb 89 3c
       0.14926025 -0.002612143 0.10503852 0.016813232
000070 80 a3 1d be 79 36 d2 3d 73 be 33 be d6 64 92 bb
       -0.15394402 0.10264296 -0.1755312 -0.004467587
000080 9a 40 e7 3d a5 03 9d 3d b8 57 5e 3e ae 4a 21 be
       0.11291619 0.07666711 0.2171315 -0.15751144
000090 37 9a 89 3d 66 09 69 be 68 70 ae 3c 3e a9 32 be
       0.06718867 -0.22757491 0.021293834 -0.17447373
0000a0 b4 15 60 3e e1 33 40 be ff 2f 3a bd c7 e9 1b be
       0.21883279 -0.1876979 -0.04545593 -0.15225898
0000b0 72 da 0b be 65 28 07 be 8a c4 fe bd 21 0f 9c 3c
       -0.13657549 -0.13199003 -0.124398306 0.019050183
0000c0 29 e8 ba bd 2f dd 77 3e 9f 6c 71 bc 3b 27 1d be
       -0.09126312 0.24205469 -0.01473537 -0.15346996
0000d0 4b 6b 91 3d 9a 58 19 3d 5b 43 22 3e 1c c9 d1 bd
       0.07100543 0.037438013 0.15846007 -0.10243437
0000e0 00 86 2f 3d c7 1d e2 bd 6f 08 51 be 51 5d 1f be
       0.0428524 -0.11040836 -0.20413373 -0.15562941
0000f0 6b b4 34 be e0 f7 6c 3e 43 42 52 be 73 5e 37 3d
       -0.17646949 0.23141432 -0.2053309 0.04476781
000100 3d 53 44 bd 15 b8 40 be 26 04 51 be d4 5a 04 be
       -0.047930945 -0.18820222 -0.20411739 -0.12925273
000110 52 fb 97 3e c2 ae 59 bd d4 b6 37 3e d6 d0 ef bd
       0.2968393 -0.053145178 0.17940837 -0.11709754
000120 85 d9 d1 3d e0 bc c2 3d a5 76 08 be 16 f8 b7 3d
       0.10246567 0.09508681 -0.1332651 0.089828655
000130 66 0d a9 3b 6d f4 d1 bd 38 be a2 3d 43 78 4e be
       0.005159068 -0.10251699 0.079464376 -0.20163064
000140 53 86 86 3e 20 c8 c4 3c 13 71 83 bd 20 da d2 3d
       0.26274356 0.024021208 -0.064180516 0.1029551
000150 d8 51 e5 bd dd 5d fd 3d 08 f0 e0 bd bf f7 34 3e
       -0.11197251 0.123714186 -0.10983282 0.17672633
000160 37 f6 be 3d 8a 82 2a bd 88 41 8c 3d 94 ec e6 bd
       0.093243055 -0.041628398 0.068484366 -0.112755924
000170 81 80 46 3e a8 fa 22 3e 4a 4a 2a bb 21 ae 36 3e
       0.19384958 0.1591593 -0.002598422 0.17839862
000180 d0 4c 0a 3e 4b 8d 9e 3d 75 54 b9 bd b4 7d f6 3d
       0.13505864 0.07741793 -0.09049312 0.12035695
000190 30 14 bf 3d e6 b6 1e be 0c cb dc 3d 83 e8 7c be
       0.09330022 -0.15499458 0.107809156 -0.24698071
0001a0 7f ee 2c be 5e 55 3c be 08 61 3f 3e 4f 85 81 be
       -0.16887854 -0.1839194 0.18689358 -0.2529702
0001b0 3d 69 54 3d b3 3e e7 3d 71 ff 10 3e e8 3f 47 3d
       0.051858176 0.11291256 0.14159943 0.04864493
0001c0 fa e9 2b 3e 2e b6 d4 bd c2 cb 14 3e 02 5e 1c 3e
       0.16788474 -0.103863105 0.14530852 0.15270236
0001d0 a0 90 09 3d 2c 1d 85 3d f3 76 02 3e c3 1c cc bd
       0.03358519 0.06499705 0.12740688 -0.09966423
0001e0 a4 ef 68 be 7d fa 1c 3e a5 f3 74 3e 98 da a4 bd
       -0.22747666 0.15329929 0.23921068 -0.08049506
0001f0 4e d7 bb 3d 01 64 db bd f5 9a ba 3d e7 f6 1f bd
       0.091719255 -0.107124336 0.09111587 -0.039053824
000200 b9 31 37 3d 0c 5e 3d 3d fa 60 26 3e 5a 5e 4f 3d
       0.044725154 0.04623227 0.16247931 0.05062709
000210 43 a8 87 bd 57 83 90 3d ac 7f 25 3e d2 d4 81 be
       -0.0662389 0.07056301 0.16161984 -0.25357682
000220 ed d0 53 3d 5f c1 a8 3c fa 7c d4 bd 44 a4 ee bd
       0.05171292 0.020600019 -0.103754 -0.11652425
000230 81 b7 85 bc 84 31 33 3e a5 d6 45 be 19 40 19 3e
       -0.016322853 0.17499357 -0.19320162 0.14965858
000240 d6 ba fb bd fd 22 32 3e 5e 4e 53 3e a9 f7 3a bd
       -0.122914955 0.1739616 0.20635363 -0.045646343
000250 06 75 3b 3e 0f 02 05 be 0e 73 74 bd 14 c4 89 bd
       0.1830636 -0.12989067 -0.059680037 -0.06726852
000260 87 be fe bd dd 04 7b 3c 47 1a 5b be 56 9f 2b 3c
       -0.12438684 0.015320984 -0.21396743 0.010475
000270 69 43 17 3e b9 77 0b 3d c9 b5 ed 3d 43 a9 fd bd
       0.14771809 0.034049723 0.116069384 -0.123858
000280 8c 17 c4 bc bb e1 3d be 94 95 60 bd 81 01 be 3d
       -0.02393701 -0.1854314 -0.05483015 0.092776306
000290 59 dd 68 3e c8 cf 0b 3d ba 4d 4b be f5 0c 18 3d
       0.22740687 0.034133703 -0.19853869 0.03712173
0002a0 a4 bf 1f bd 1c 10 3f be d5 8d fc 3c 5d 91 64 be
       -0.039001122 -0.18658489 0.03082935 -0.22321077
0002b0 aa ab 15 be 82 cc 26 3e 9b 14 3c 3d 36 4d c2 bd
       -0.14616266 0.16288951 0.04591809 -0.09487383
0002c0 2e 61 2b bc 1b b2 5a be aa 90 72 bd ea a6 a4 3d
       -0.010460181 -0.21357004 -0.059219994 0.08039649
0002d0 76 7b 54 3e 3c d2 48 3e 92 9c e1 ba 6f dc 3b 3e
       0.20750222 0.19611448 -0.0017212799 0.18345807
0002e0 f3 f0 95 3c 10 97 2c 3d c3 5d 1b be c4 fe 23 be
       0.01830337 0.042136252 -0.15172486 -0.16015154
0002f0 b1 66 41 3e 4d 01 9b bd 1c 5e e5 3d 2e 0c 88 bd
       0.1888683 -0.075686075 0.111995906 -0.06642948
000300 73 1f a8 3d a5 23 b6 3d e2 99 d7 3d 34 76 06 3d
       0.082091235 0.088935174 0.10527398 0.03282757
000310 85 e0 fe bc 97 20 41 3e 3b 7b 35 3d 48 0d ad bd
       -0.031112919 0.18860088 0.044306975 -0.08449799
000320 58 4e c3 bd 4e 74 43 3e 0d a4 20 3e fe 0b 9c 3d
       -0.09536427 0.19087335 0.1568758 0.07619475
000330 f7 48 3e 3e cf 15 22 be 01 1d 81 be b4 d2 3a be
       0.18582521 -0.15828632 -0.2521744 -0.1824444
000340 ea 15 07 be 7c de 2c be 7c 47 86 3d ff 70 bc bd
       -0.13191953 -0.16881746 0.06556603 -0.0920124
000350 22 f0 0e 3e 57 95 ca bd 1e 7f 44 be 71 7b 37 3e
       0.13958791 -0.098917656 -0.19189116 0.17918183
000360 b2 10 9c bd 0d 46 7a 3d 37 be 3e be 51 8f 75 be
       -0.07620372 0.061101962 -0.18627249 -0.23980452
000370 02 b6 2c be 4a a0 36 3c 0d 5b 6e be 7e e2 41 be
       -0.16866305 0.011146614 -0.2327692 -0.18934056
000380 9a 28 47 3e 21 cc 82 bc 36 2d da 3d f1 69 cf 3a
       0.19449082 -0.015966477 0.106531546 0.001582442
000390 07 e9 21 3e c5 66 aa 3d cb b7 8a bd c6 79 0b 3d
       0.15811549 0.08320383 -0.06773337 0.03405168
0003a0 a3 bd 13 3e b8 d8 1f 3e b7 21 7d be 16 63 1f 3e
       0.1442781 0.15610015 -0.24719892 0.15565142
0003b0 50 b2 68 3e 0b 03 2e 3e 06 83 c0 bd 2c ec 91 3c
       0.22724271 0.16993348 -0.09399991 0.01781281
0003c0 e6 6f 4b bd b0 8a 05 3e 80 c2 f9 bd e1 3a f8 3d
       -0.04966726 0.13041186 -0.12195301 0.12120605
0003d0 20 c8 ea 3c 53 5f 96 bd 39 e3 63 be 3a c3 fc bc
       0.02865988 -0.073424004 -0.22254647 -0.03085481
0003e0 9c 80 09 be c3 7a c3 bd de 60 27 3e 4f 08 0b bd
       -0.13427967 -0.09544899 0.16345546 -0.03394347
0003f0 94 46 0c 3d df f9 72 be 1e 54 2f be 33 6b ac 3d
       0.034246996 -0.23728131 -0.17121932 0.08418884

arith.constant5 f4 [128, 128]
000000 4e f8 fd bd 1a 7a b5 3d 26 09 80 3d b2 97 46 3d
       -0.12400876 0.0886118 0.06251745 0.04848451
000010 43 47 a3 3c 86 f8 5a 3d cf 2b ec bd 3f eb e1 bd
       0.019931441 0.053459667 -0.11531793 -0.11031198
000020 91 35 00 3e b5 dd c3 3c 89 c6 3f bc 3a 9c 6d bd
       0.12520434 0.02390943 -0.011705049 -0.058010317
000030 17 53 0c be 28 98 10 3e b3 8f 91 3c 50 a5 ca bd
       -0.13703571 0.14120543 0.017768716 -0.09894812
000040 be 33 15 3e 70 98 e2 bc 66 66 1e 3e 76 52 cc bd
       0.1457052 -0.027660578 0.1546875 -0.09976666
000050 40 a5 16 b6 33 3b b4 bd 10 55 47 3d cf a2 c4 bd
       -2.244793e-06 -0.08800354 0.048665106 -0.09601366
000060 f2 a8 0a 3e 9f 78 ec bd e4 e2 cc 3b 02 4a 21 be
       0.1354101 -0.11546444 0.0062526334 -0.15750888
000070 d4 fb 46 bb b0 24 15 bd b3 11 21 3d ca 7e f8 bd
       -0.0030362504 -0.03641194 0.03932352 -0.12133558
000080 f0 a6 c0 3d 78 9f b8 3c ee 14 fd bb a9 77 be 3d
       0.09406841 0.022536978 -0.0077234423 0.09300167
000090 71 57 1b be 92 36 68 3d da 6a 02 be c9 b4 ed 3d
       -0.15170075 0.056692667 -0.12736073 0.11606748
0000a0 74 f7 e4 bd c3 af 11 3e e7 85 2a 3e cf d9 10 3e
       -0.111800104 0.14227204 0.16652642 0.14145587
0000b0 a5 c8 d6 bd 43 14 9c bd 52 98 20 be 78 a2 8a 3d
       -0.10487489 -0.07621052 -0.15683106 0.0676927
0000c0 17 8f 56 3d c4 01 9c bd 1e 53 6a 3d 3e 63 9b bd
       0.052382555 -0.07617524 0.057208173 -0.07587288
0000d0 6d b7 ec 3d f9 9f 66 3d 27 c0 f7 bd 05 74 15 3d
       0.11558423 0.056304906 -0.12097197 0.036487598
0000e0 46 e5 16 be 77 82 1f bb 35 0a c0 3d e4 fb d1 bd
       -0.14735898 -0.0024339238 0.09376947 -0.102531224
0000f0 2f c0 53 3d 89 aa 6b 3d 9e c7 85 bd e0 f0 a1 bd
       0.051696952 0.057535682 -0.065322146 -0.079072714
000100 4a 14 5c 3c 23 31 ee bc a9 ff bb 3d 58 f1 0d 3e
       0.013432572 -0.029076165 0.09179623 0.13861597
000110 e4 70 f7 3b a0 88 f2 bd 2f e9 e3 3d 57 4a 0f 3e
       0.0075512994 -0.118424654 0.111284606 0.13993202
000120 36 ca 81 bd 53 8f 09 3e dc dd 5b 3c 84 55 9b 3c
       -0.06337397 0.1343358 0.013419595 0.018961675
000130 7e 97 c4 bd cc 43 81 bc 44 bf 78 3d f7 2a c8 bd
       -0.09599207 -0.015779398 0.06072928 -0.0977382
000140 4e c5 12 3e ae 08 b3 3d 57 83 1e 3d 8d 7f 0a 3e
       0.14333078 0.0874189 0.038699474 0.1352522
000150 b8 9b 4d bb 3b 79 48 bc 2c 0b e6 bd 8c bf df bd
       -0.0031373333 -0.012235935 -0.112325996 -0.109252065
000160 dc 13 15 be 82 4d a9 bd 45 75 71 bc 44 f1 e1 3d
       -0.14558357 -0.082667366 -0.014737432 0.11032346
000170 06 ae 80 3d ab 85 04 be 5c 21 0e 3e 27 32 2d 3d
       0.06283192 -0.12941615 0.13879913 0.042284157
000180 1d 61 02 3d ea 71 e9 3d 4b d6 60 3d d6 2a ce 3c
       0.031830896 0.113986805 0.054891866 0.02516691
000190 58 f3 14 bd 61 23 fa 3d b6 7d 2c 3e c6 ec ee bd
       -0.036364883 0.12213779 0.1684483 -0.11666255
0001a0 b7 48 f6 bd 03 f1 8d bd f6 96 cd bd 26 8e fe bd
       -0.12025588 -0.06930735 -0.10038559 -0.124294564
0001b0 4a a9 0a be 31 0f 7d 3d 13 6d 2d 3e e8 19 20 be
       -0.13541141 0.061782066 0.1693614 -0.15634882
0001c0 ed 6f 3b bd b8 e1 4a bd e5 b8 55 3d 1c fc 32 be
       -0.045761038 -0.04953167 0.052178282 -0.17478985
0001d0 3d da 18 bd 36 ce ba bd 74 ad 0b 3e ab 5f d0 3d
       -0.037317503 -0.09121363 0.13640386 0.10174497
0001e0 66 bc 91 3d f4 da 89 3d 84 c8 a2 bc bc e8 a1 bd
       0.07116012 0.06731215 -0.019871004 -0.07905719
0001f0 ac 3b 18 be 0a 2b ce 3d 41 2f 19 3e d4 ba 20 3e
       -0.14866513 0.10066803 0.14959432 0.1569627
000200 f8 20 70 3d 4e cc d5 3d bc be 0e be 68 e8 f8 3c
       0.05862519 0.10439359 -0.13939947 0.030384257
000210 40 64 5c bb 36 eb 19 be 7b 69 94 bd f4 2a f3 bd
       -0.003362909 -0.15031132 -0.07246681 -0.11873427
000220 f0 3c 48 bc 6a 0e fe 3d c8 a6 37 bd 0e 0c d3 3d
       -0.01222156 0.12405093 -0.04483679 0.103050336
000230 e0 44 70 bd fe d5 26 bd 76 a4 ef 3d f5 6e b1 bd
       -0.058659434 -0.040731423 0.1170129 -0.086637415
000240 a2 ed 97 bd ed 1d ea bd 00 5d 02 3b 40 7d 5f 3b
       -0.07418372 -0.11431489 0.0019891858 0.0034101754
000250 7a 85 d1 bd 54 55 c4 3d af 2a 14 3e 0c bd 7b bd
       -0.10230537 0.095865875 0.14469407 -0.061459586
000260 84 dd 30 bd 08 3a 3a 3d 06 e6 d9 3d ac 97 b4 3d
       -0.043180004 0.0454655 0.106395766 0.088179916
000270 30 b1 f1 3c 60 04 f7 bb 80 cc fc bb 0e 33 f6 3d
       0.029503435 -0.0075383633 -0.007714808 0.12021457
000280 30 9b b2 3c bf cb be bd 48 a9 c2 bd 82 3d d9 3d
       0.021802515 -0.09316205 -0.09504944 0.10607435
000290 56 5a c1 3d ce bd bb bd 90 65 a4 3d d0 1f 54 3c
       0.09441058 -0.09167062 0.08027184 0.012947038
0002a0 f4 52 b4 bd 0a e4 a4 bd 92 51 e0 bd b4 59 dc bd
       -0.088048846 -0.080513075 -0.10953058 -0.10759297
0002b0 65 c4 07 3e 80 7a 72 3c 21 0e 85 bd 46 50 08 be
       0.13258512 0.014799714 -0.064968355 -0.13311872
0002c0 f6 6b dc 3d c0 73 eb bc 44 f3 0b 3d 4d 34 15 be
       0.107627794 -0.028741717 0.034167543 -0.14570732
0002d0 02 49 a5 3d c8 5c 8c 3c e0 c0 14 3d 00 08 35 b9
       0.08070566 0.017134085 0.036316752 -0.00017264485
0002e0 f8 8d 1c be a7 6a e7 bd 6c 38 9e 3d f4 f7 64 3d
       -0.15288532 -0.11299639 0.07725605 0.05590053
0002f0 d6 99 ca 3d d9 2c 18 3e 15 e5 05 3e 00 bc 52 bc
       0.09892623 0.14860858 0.13075669 -0.0128622055
000300 f2 46 05 be 00 0b d8 3b 98 2c fe bd 62 a5 e7 3d
       -0.13015345 0.006593108 -0.12410849 0.11310841
000310 00 a4 e5 3c ec e5 cd bd 52 50 56 bd 4e a2 ef bd
       0.028032303 -0.1005362 -0.052322693 -0.11700879
000320 a4 b4 56 bd ae 17 89 bd 48 c3 cb bd 6c aa 65 3d
       -0.052418366 -0.0669397 -0.09949356 0.05607073
000330 c0 83 94 3c 90 01 32 bc ce 67 d2 bd 6c 32 88 3d
       0.01812923 -0.01086463 -0.102737054 0.06650242
000340 90 a3 df bd c0 3b 7a bb 0b 30 15 be a6 fc f3 bd
       -0.10919869 -0.0038182586 -0.14569108 -0.11913423
000350 96 74 07 be 20 5f bb bc e8 06 f5 3c ca d1 f8 3d
       -0.13228068 -0.022872508 0.02991052 0.12149389
000360 9e 13 61 bd 57 4e 08 be 10 b0 62 bc 00 58 a2 b8
       -0.05495035 -0.13311134 -0.013835922 -7.741153e-05
000370 60 2c b2 3d 7d fb 0d 3e 38 1d ec bc 44 a7 ae bd
       0.0869987 0.13865466 -0.028822526 -0.08527997
000380 51 f5 fe bd f8 55 fe 3c c8 ed d2 3c 24 8b f2 bd
       -0.12449134 0.031046852 0.025748149 -0.11842945
000390 d1 26 10 be 30 ef 51 3d 2f b0 18 be a5 c3 ae bd
       -0.14077307 0.051253498 -0.14910959 -0.0853341
0003a0 10 60 1b 3c 98 76 af bc 1c 63 a7 3d 71 a6 10 be
       0.009483352 -0.021418855 0.081732005 -0.14125992
0003b0 56 c5 ee bd 51 bb a0 bd 00 44 a1 bb 8a c3 ad 3d
       -0.116587326 -0.07848228 -0.0049214363 0.08484562
0003c0 04 fe f0 bd 90 7e 37 3d 56 c5 e8 3d 55 ec 01 be
       -0.117672 0.044798434 0.11365764 -0.1268781
0003d0 c6 47 8d 3d de 7a d8 bd 80 67 ca bc 32 cd c9 3d
       0.06898455 -0.1057031 -0.024707556 0.09853591
0003e0 b3 c8 ff bd a0 f0 60 3c 04 4c a4 3d 00 b9 d9 ba
       -0.12489452 0.0137292445 0.08022311 -0.001661092
0003f0 e8 49 fd bc 20 ba 1f 3c 26 8b ef 3d fe 77 22 bd
       -0.03091903 0.0097489655 0.11696462 -0.039665215

arith.constant6 f4 [6]
000000 57 82 a3 bb dc a7 23 3c fd aa 5a 3c 35 1e 4b bc
       -0.004989903 0.009988751 0.013346431 -0.012397339
000010 66 54 98 bc 04 97 a2 3c
       -0.018594932 0.0198474

arith.constant7 f4 [128]
000000 5b b2 89 3a 00 00 00 00 d3 35 11 3c 6d 1e 2b 3c
       0.0010505425 0.0 0.00886293 0.010444266
000010 d1 69 83 3c c0 70 7e 3b 92 9d 45 ba c8 48 5c 3c
       0.016041668 0.0038824528 -0.00075384334 0.013445087
000020 99 3e 72 3a a3 4e c8 bb 82 2a 29 bc 45 73 5f bc
       0.0009240895 -0.00611289 -0.010325076 -0.013638322
000030 55 01 4d bc 0b 55 bb bb 46 bc ea 3b 76 6b 0b 3c
       -0.012512525 -0.005716925 0.007163557 0.008509507
000040 a2 09 10 3c 77 1e 11 bc 92 d0 ef ba c5 12 2b bc
       0.008791359 -0.008857361 -0.0018296412 -0.010441487
000050 55 cf 9d 3a 28 21 34 3c 44 6e 41 bc d1 39 d7 3a
       0.0012039939 0.010994233 -0.0118060745 0.0016420429
000060 26 0b 01 3c f6 93 3e 3c ea 3b 28 3c df e1 b2 ba
       0.007876193 0.011631956 0.010268191 -0.0013647637
000070 5d 92 09 bc ad e7 26 bc fd 5f 16 3c 43 d1 45 3b
       -0.008396712 -0.010187072 0.009178159 0.0030184544
000080 2f c2 46 bc 6d 76 83 bc 63 b4 b5 3b 87 db 2a 3c
       -0.012131258 -0.01604768 0.0055451854 0.010428316
000090 f3 ef a6 ba f2 f5 af bb 00 00 00 00 89 0d bc bb
       -0.0012736305 -0.005369895 0.0 -0.005738918
0000a0 1f 52 bb 3b c5 d2 16 bb ab 83 21 bb cd b2 2d bc
       0.0057165767 -0.0023013812 -0.002464513 -0.010601711
0000b0 00 00 00 00 5f fd 70 3c de c4 d2 bb 3a d6 c3 bb
       0.0 0.014708846 -0.00643216 -0.0059764655
0000c0 02 c4 3b bc ab 94 fe 3b 5a 2b 2f ba 8a f4 6a bc
       -0.011460306 0.0077691874 -0.000668218 -0.014340529
0000d0 c6 8b 11 bc c4 29 63 3c 7c fa 11 bc 61 74 84 3b
       -0.008883422 0.013864938 -0.008909818 0.0040421938
0000e0 7c df 4a bc 08 a7 ff bb d2 57 fc 3b e8 63 02 3c
       -0.012382384 -0.007801894 0.0077008987 0.00795839
0000f0 87 bc 53 3c 6b b2 f5 3b a4 7b 5a ba 40 9f 1a bc
       0.012923366 0.0074980757 -0.0008334464 -0.009437382
000100 15 5f a8 bb 26 72 37 3b d9 2e c8 bb 00 00 00 00
       -0.005138288 0.0027991622 -0.0061091003 0.0
000110 5c f4 5b 3c 7a 3d 96 bb 02 f7 14 3c f4 9c 3b bc
       0.013424959 -0.0045849653 0.009092094 -0.011450995
000120 a7 99 cf bb 27 88 ee bb 36 4b 7d bc 1d 03 14 ba
       -0.0063354555 -0.007279414 -0.015459826 -0.0005646216
000130 79 2c 8c 3b 6a dd b7 bb 1f f8 78 3b 00 00 00 00
       0.0042777625 -0.0056111114 0.0037989689 0.0
000140 ac ab a1 3a 07 2e 13 bc d6 70 17 bc c5 4f 51 3b
       0.0012334487 -0.008983142 -0.009243211 0.0031938415
000150 19 aa 80 3a c0 a2 2d bb fb da 92 bb f1 8f 69 3c
       0.0009816318 -0.0026494712 -0.004481671 0.01425551
000160 c3 8f c0 3a d5 c1 6c 3b 53 7a bf bb 15 6c e6 3b
       0.0014691282 0.0036126275 -0.0058434396 0.0070319274
000170 e5 38 11 3c 8b 09 f5 3b 0d 87 4b bb 97 a3 05 bb
       0.008863662 0.0074779443 -0.0031055838 -0.0020391697
000180 f3 1e 5f bb 39 28 1e bb 00 00 00 00 ec 5b 14 bc
       -0.0034045547 -0.0024132861 0.0 -0.009055119
000190 84 79 89 ba 03 6b 0f bb 39 d6 35 3b 00 37 c5 3b
       -0.0010488485 -0.0021883852 0.0027746095 0.0060185194
0001a0 4f b8 ec bb 72 e9 84 bb 55 94 a7 ba 4c 8e 6f 3c
       -0.0072241197 -0.004056149 -0.0012785295 0.014621329
0001b0 36 82 a0 bb 81 ac 99 3b cf 16 62 bb 1f 4e 3c 3b
       -0.004898335 0.0046897535 -0.0034498458 0.0028733087
0001c0 d3 43 ed bb 4f e0 1b bc 2e a0 15 3c 6b c8 b9 ba
       -0.0072407513 -0.009513929 0.009132428 -0.0014174109
0001d0 00 00 00 00 f8 5b d5 3b 4b 8e 9a bc 51 ea 40 3c
       0.0 0.0065112077 -0.018866679 0.011774615
0001e0 cd 5e 0a bc ee 38 33 3b 30 6e e8 bb e3 81 8a bb
       -0.008445454 0.0027347165 -0.0070932135 -0.0042269095
0001f0 0e 38 bb 3b f9 81 94 3c a8 5d 6c 3c 55 7e 02 bb
       0.0057134693 0.018128382 0.014426626 -0.0019911726

BaselineCNN_1/conv2d_15_1/convolution f4 [32, 3, 3, 3]
000000 6f 62 85 be 82 6d 60 bf 32 26 b5 bf c1 c5 f2 be
       -0.2605166 -0.87667096 -1.4152281 -0.474165
000010 8e bf 2c c0 2e 29 dc 3f fe 4b 98 bf 9f b8 16 3f
       -2.6991916 1.7200067 -1.1898191 0.5887546
000020 d4 93 c0 bf 3c 27 11 40 79 3a 10 c0 44 21 64 3f
       -1.5045114 2.2680197 -2.253569 0.8911326
000030 30 2c 4f 40 b0 c5 2e 40 b9 90 b5 bf 89 0e e2 3f
       3.237072 2.730816 -1.4184791 1.7660686
000040 95 b6 0d 40 ab 3b fb be 97 1d f2 bf f8 45 65 c0
       2.214269 -0.4906896 -1.891528 -3.5823956
000050 71 a6 e1 be f4 23 b7 3f da 8b 03 be 49 cc 39 40
       -0.44072297 1.4307847 -0.12846318 2.9030936
000060 c0 cb 53 c0 25 c5 20 40 f6 d7 0c c0 dc 65 e8 bf
       -3.309311 2.5120327 -2.2006812 -1.8156085
000070 ea fc e1 be f2 0b c8 bf 30 05 c4 bf a4 b4 56 bf
       -0.4413827 -1.5628645 -1.5314083 -0.83869386
000080 1f 14 af be ba ab 60 bf ef f0 76 bf 5a a3 ae be
       -0.3419504 -0.87762034 -0.96461385 -0.34109002
000090 c2 93 1b bf ee f5 7a 3e 9d 74 54 3f d4 bc d7 bf
       -0.60772336 0.24507877 0.8299044 -1.6854501
0000a0 62 2a 38 3f 68 ad 8b 3f e5 32 ac bf ca 20 50 bf
       0.7193967 1.0912294 -1.3453032 -0.8130003
0000b0 ac d8 d6 3f 53 a7 31 3e d5 bf 07 40 e7 dc 62 bf
       1.6784873 0.17348985 2.1210835 -0.8861832
0000c0 45 9b 9e 3d ea eb b3 3f 77 ea fb 3e b0 31 5c be
       0.07744459 1.405637 0.4920232 -0.2150333
0000d0 49 c7 e3 3f ac 9c 87 3f 3b bd 22 bf 71 c2 82 3f
       1.7795192 1.0594687 -0.6356999 1.0215589
0000e0 31 38 80 bd da d9 8f 3f 50 38 b4 3f 5d d7 14 40
       -0.06260718 1.1238358 1.4079685 2.3256447
0000f0 bb 46 1b c0 78 a0 68 bd 9c 63 1e 40 f9 39 06 bf
       -2.426192 -0.05679366 2.4748297 -0.5243221
000100 59 5c 0d c0 56 d7 c3 3f da c2 8a 3d 88 bf 74 3f
       -2.2087615 1.530009 0.06775446 0.95604753
000110 b9 94 0b 3f 15 71 a8 bf b4 58 20 bd 64 69 6e 3f
       0.5452381 -1.315951 -0.039147094 0.93129563
000120 10 c0 05 3f 54 4f 4c be dc bc 32 c0 50 1c ff bf
       0.5224619 -0.19952136 -2.792777 -1.9930515
000130 8e 44 ff 3f e8 f3 9c 3f b8 d4 b6 bf 14 28 32 bf
       1.9942796 1.2261934 -1.4283667 -0.69592404
000140 d2 97 aa bf a5 bd 94 be 86 de 06 c0 d4 6b 17 c0
       -1.3327582 -0.29050937 -2.1073318 -2.3659563
000150 11 e8 42 bf f3 a4 18 3f b6 4d 91 bf 1f 79 0a bf
       -0.76135355 0.5962669 -1.135184 -0.54091066
000160 2f 7c 24 40 66 70 08 40 94 b4 b1 3f b3 cf 9d 3f
       2.5700796 2.1318603 1.3883233 1.232901
000170 f5 4c cd 3e 60 6d d6 bf e6 f0 d1 3f b5 e0 16 40
       0.40097776 -1.6752129 1.6401641 2.357465
000180 d3 1c 41 c0 f0 19 ec 3f c4 8f 00 40 8e 13 02 40
       -3.0173843 1.8445415 2.0087748 2.0324435
000190 9e 7c c6 bf 3c f3 67 bf b8 f1 e4 bf 7a ea 0e 40
       -1.550678 -0.9060552 -1.7886267 2.2330613
0001a0 c7 f4 eb 3d cd 33 05 c0 ef b2 da bf 5f 8f f9 3f
       0.11521297 -2.0812867 -1.7085856 1.9496878
0001b0 34 9d 0f 40 d7 51 94 bf 1f 40 e3 3f 8c 8c f3 3e
       2.24397 -1.1587476 1.7753943 0.47568166
0001c0 c5 56 82 3e c2 7c 9d bf fc e3 e2 bf 6e 72 a1 3f
       0.25456825 -1.2303698 -1.7725825 1.2613046
0001d0 ff 7b 1c 3f 66 d9 f0 3f e9 fd 09 40 29 14 c6 3f
       0.61126703 1.8816345 2.1561224 1.5474902
0001e0 59 65 b7 bf ce 45 0c 40 c9 85 72 bf ab 72 a9 3f
       -1.4327804 2.1917605 -0.9473539 1.3238119
0001f0 cb 33 10 bf d8 2f 19 bf 41 37 97 bf 37 f1 e1 3f
       -0.5632903 -0.5983863 -1.1813737 1.7651738
000200 44 55 c8 bf a2 cf d3 bf 5d e6 a0 bf 13 23 db bf
       -1.5651021 -1.654774 -1.2570301 -1.7120079
000210 39 80 a9 bf da 1e c2 bf a3 87 8d be 5f 27 4c 3f
       -1.3242255 -1.5165665 -0.27642545 0.79747576
000220 e4 22 87 3e 19 0d 07 c0 ad e7 a5 bf 6f 3b 48 be
       0.26393807 -2.1101744 -1.2961327 -0.19553922
000230 e3 10 22 40 05 1e 8b bf 7b c3 1d 3f 5a f3 14 3f
       2.5322807 -1.0868536 0.61626405 0.58183825
000240 b5 ec 55 be 62 f2 74 3e e0 31 17 40 cc 2f a8 bf
       -0.20891078 0.23920587 2.3624191 -1.3139586
000250 f3 f5 b2 3f ae 51 49 40 5a 82 1a c0 db 67 af bf
       1.3981308 3.1456103 -2.414206 -1.3703569
000260 01 6b 01 c0 f0 e9 b9 bd e4 0c d8 3e 36 6a 80 be
       -2.022156 -0.09077823 0.42197335 -0.25081033
000270 6c 74 17 c0 fd bc 97 be 73 51 98 3d 37 73 ac 3f
       -2.3664808 -0.29636374 0.0743741 1.3472661
000280 33 55 c9 3f b1 07 78 3f 28 93 41 3e c3 e3 10 bf
       1.5729126 0.96886736 0.18903792 -0.56597537
000290 0c 38 fd be 9c a7 49 be e6 65 13 bf fc 05 39 bf
       -0.49456823 -0.19692844 -0.5757736 -0.72274756
0002a0 b4 ce 69 bc 2c 22 a9 3c a5 ad 3c be e5 28 8f bd
       -0.014270473 0.020646177 -0.18425615 -0.06990222
0002b0 13 bf 04 bf c3 66 47 bf 51 e6 42 3e 5a 5b 29 bf
       -0.51854056 -0.77891177 0.19033171 -0.66155016
0002c0 90 64 a3 3d d9 71 be be af 44 e0 be c3 3e 86 be
       0.07978165 -0.37196234 -0.438024 -0.26219758
0002d0 10 6f 1c 3e 8f e6 75 be 4c 65 cb 3d 54 54 e5 be
       0.15276742 -0.24013732 0.0993143 -0.447909
0002e0 2b 78 7b be 1e ab d0 3e 3a 6d 02 bf e0 e1 5b 3f
       -0.24557559 0.40755552 -0.50947917 0.8589153
0002f0 17 c2 d0 be 04 73 94 bf 22 b5 bf bf c4 78 ee bf
       -0.4077308 -1.15976 -1.4977152 -1.8630605
000300 fc 79 02 40 b3 32 31 3e 8c 46 b0 3f 91 bf e6 3f
       2.0386953 0.17304496 1.3771529 1.8027211
000310 da 62 26 c0 2e 70 91 3f 7f a0 1c 40 69 9a b0 bf
       -2.5997834 1.136236 2.447296 -1.3797122
000320 26 85 85 bf bd 88 e3 3c 0e 80 4a 3f ac 04 dd bf
       -1.0431259 0.027775163 0.79101646 -1.7267051
000330 00 4f b9 bf 58 99 81 3c 3f 5d 13 c0 c6 bb 0d c0
       -1.4477234 0.01582019 -2.3025663 -2.2145858
000340 88 45 05 c0 49 6c 0f c0 19 f3 ef 3f 87 66 e2 3f
       -2.0823689 -2.2409842 1.8746063 1.7687539
000350 03 ea ea 3f d8 7b e5 3f 09 23 e9 3f f8 3e 92 3f
       1.8352665 1.7928419 1.8213817 1.1425467
000360 e7 45 49 bf da a5 5c bd 9b d1 96 be 79 6c 07 c0
       -0.7862229 -0.053869106 -0.2945679 -2.1159956
000370 0a d0 ae 3f f6 55 1b 40 09 84 db bc b2 3a 52 40
       1.3657238 2.4271216 -0.026796358 3.2848325
000380 5a b7 19 c0 80 6c 41 c0 5f 84 e5 3f 67 a7 22 40
       -2.401816 -3.0222473 1.7931021 2.5414674
000390 7b 13 02 c0 59 d0 02 bf 37 83 ef bf 29 2d 02 3f
       -2.032439 -0.51099163 -1.8711919 0.5085016
0003a0 26 fa 71 3f 45 19 21 3f ed 3a 0f 40 db 31 e6 3e
       0.9452232 0.62929183 2.2379715 0.44959912
0003b0 af ea 02 c0 6f 35 91 be 12 c5 61 3f 1c 0b e0 bf
       -2.045574 -0.2836108 0.8819133 -1.750339
0003c0 b9 18 b6 bf 79 84 83 bf 50 09 b9 3f 62 31 2b 3f
       -1.4226295 -1.0274802 1.4455967 0.6687223
0003d0 ef 1a e7 bf 81 ac 3b bf 38 7a d6 3e c5 a5 eb bf
       -1.8055094 -0.73310095 0.4189012 -1.8409964
0003e0 9c 9d 1a bf 32 d5 66 3f 24 29 8e bf c1 27 02 40
       -0.6039674 0.9016906 -1.1106305 2.0336764
0003f0 c4 e0 79 3f ff c8 b0 3f 58 40 c1 be 05 bd c9 3e
       0.9760859 1.3811339 -0.37744403 0.39402023

BaselineCNN_1/re_lu_15_1/Relu;BaselineCNN_1/batch_normalization_15_1/batchnorm/add_1;BaselineCNN_1/conv2d_15_1/convolution;BaselineCNN_1/batch_normalization_15_1/batchnorm/sub f4 [32]
000000 7b 65 43 3f f6 90 92 3f cf 4d 58 bd 34 0a 95 bf
       0.7632672 1.1450489 -0.05280858 -1.1643739
000010 a4 2c 62 3d ab 09 02 bf a4 1a 23 40 30 8a 13 3f
       0.055218354 -0.50796 2.548501 0.5763273
000020 f9 83 95 3e 45 7a d2 3f 1a 65 c7 bf 29 cd 5c 3f
       0.2920225 1.6443564 -1.5577729 0.8625055
000030 71 3f 13 40 44 8f c3 3f f6 cb 82 bf 20 b9 f8 3d
       2.3007472 1.5278096 -1.0218494 0.12144685
000040 46 52 a8 bf 46 65 c8 bf c9 0d 95 bf db a5 1e 40
       -1.3150108 -1.5655906 -1.1644832 2.478873
000050 1e 53 4c 3f 4d 1a 1d c0 d9 9b 2f c0 42 b4 35 40
       0.79814327 -2.4547303 -2.7438872 2.839127
000060 b7 a1 c8 3f 7c fe 8b bf d5 26 60 3f 2a 28 c2 bf
       1.5674351 -1.0937037 0.8755925 -1.5168507
000070 14 e7 09 be 46 9b 24 c0 0f 85 f9 be c4 3d a8 be
       -0.13467056 -2.5719771 -0.48734328 -0.32859623
